ptModel/best_model_cora.pt (torch, 388960 bytes, 8 tensors)

layer1.0.weight f4 [64, 1433]
000000 b6 33 01 bd 36 54 f1 3b 3c 51 52 bc 94 c9 64 3b
       -0.031543456 0.007364775 -0.012836751 0.003491019
000010 53 67 a6 bc bb 6d da ba 1c 1a d1 3b 5a 7c 38 bd
       -0.02031294 -0.0016664782 0.0063812863 -0.045040466
000020 de 6b e2 bc 10 ff 19 3d 1f 38 f1 bc 75 35 15 3c
       -0.027639326 0.037596762 -0.029445706 0.009106983
000030 e0 0e 9e 3c c5 ed eb bc a4 1d 11 3b d9 75 a6 bc
       0.019294202 -0.0287999 0.0022142911 -0.020319866
000040 10 29 10 bd 88 b4 71 bc 5a 50 3b 3c 75 6c 4a 3c
       -0.03519541 -0.014752515 0.0114327315 0.01235496
000050 ba 73 08 bc 83 58 ce 3c 27 30 d6 bb 86 50 ed bb
       -0.008328373 0.02518869 -0.006536502 -0.007242265
000060 d1 87 e0 bc ad 7a 99 bc 2e 06 39 bd 40 38 91 bc
       -0.027408512 -0.018735254 -0.04517191 -0.017727017
000070 a4 b3 ae bc 13 19 89 3c 2d 14 0f bd cc 6d 1f 3b
       -0.021325894 0.01673559 -0.03493135 0.0024326919
000080 de 77 52 bc 6e 35 4f bc ec 26 20 3c 92 b3 29 3c
       -0.012845961 -0.012647016 0.009774905 0.010357754
000090 ee d8 04 3c cc a6 18 bc 31 20 d7 3b fa ec 9d 3c
       0.008108361 -0.009317111 0.006565117 0.019278038
0000a0 e1 2b 38 3c 4f a9 ab bb 94 25 96 3c f6 76 0e 3c
       0.01124093 -0.005238689 0.018328466 0.008695355
0000b0 15 46 06 bd 61 64 e0 bb f5 a1 75 3c 98 3b 01 3d
       -0.03278168 -0.0068479036 0.014992227 0.031550974
0000c0 0b 35 80 3c 8b ee 1b bc 65 87 e1 ba dc df a2 3c
       0.015650293 -0.009517322 -0.0017206488 0.019882135
0000d0 df 51 9e 3b c8 af 7f ba bb c8 76 3c f8 cc 45 bc
       0.004831537 -0.00097536715 0.015062506 -0.012072794
0000e0 d3 d8 82 3c 7c 1a 0e bd 00 4c ef 3c e6 8a 18 3d
       0.01597253 -0.034693226 0.029211044 0.03724184
0000f0 96 39 bb 3c ea 3d c5 bb ee d5 91 bb e6 33 98 bc
       0.022854608 -0.0060193436 -0.0044505512 -0.018579435
000100 5f 42 81 3c 06 9e 39 3c 8f 64 a1 3c da 8b b3 bc
       0.015778719 0.01132918 0.01970127 -0.021917272
000110 4f 19 fc 3c 27 45 6d bc 13 fd d9 3c 41 96 d3 bc
       0.030773787 -0.014481819 0.026609933 -0.025828483
000120 11 f1 65 3b 80 88 9d 3c dd 75 94 3c 05 01 15 bd
       0.0035086314 0.019230127 0.018122608 -0.036377925
000130 fd 16 ef b9 64 db 8a bc 0d 09 2c bc 1e b7 90 3c
       -0.0004560276 -0.016950317 -0.010500205 0.017665442
000140 84 5d f0 bb 6f 87 9f bb 96 e7 a1 bc 6f c3 86 3b
       -0.0073353667 -0.00486844 -0.01976375 0.004112653
000150 4b c7 92 3c 93 c1 7e bb 1e b2 cb 3c 4b bb fb bc
       0.017917296 -0.0038872703 0.024865206 -0.030728957
000160 e8 6c 15 bd b2 a4 88 3b c8 b7 98 3b b6 e4 75 3c
       -0.036480814 0.004170024 0.0046605803 0.015008142
000170 cf 4d 28 bb 10 bb d0 bb 5f bb db 3b 4a 83 0f 3d
       -0.0025681143 -0.006369956 0.006705686 0.035037316
000180 68 63 e6 bc a1 c3 35 bb 04 75 dd ba 1d 27 84 bb
       -0.028123572 -0.0027735012 -0.0016895835 -0.004032983
000190 04 17 39 3a 23 07 cb 3b d6 8c 0a bd 20 1c 3a bd
       0.00070606195 0.006195919 -0.033825718 -0.04543698
0001a0 d1 47 ed bb cc 0d a9 bc 08 60 ed 3a f6 84 b8 bc
       -0.007241227 -0.020636462 0.0018110285 -0.022524338
0001b0 1e 12 b8 bc 33 ad df 3c 38 a1 0f bd 1b 45 c0 bc
       -0.022469576 0.027304268 -0.03506586 -0.023470452
0001c0 9a c0 03 3d 68 31 87 3b 1f ab b7 3c 8c 7c 8d ba
       0.0321661 0.0041257627 0.022420464 -0.0010794564
0001d0 1d 4b 5e bd 11 59 d4 bb 87 6e d2 bb 21 5a a4 bc
       -0.054270852 -0.006480344 -0.0064218673 -0.020062508
0001e0 29 31 bb bc 0d 0a 3a 3c 5d c6 f8 bc a8 59 6f 3c
       -0.02285059 0.011354935 -0.030368024 0.014608778
0001f0 5b 72 68 bc 5d 0e aa bc 97 fb 40 bc 6e 88 15 bb
       -0.014187421 -0.020758802 -0.011778734 -0.0022816914
000200 f8 44 18 bc fa db 40 bc 99 77 e6 bb 8e 04 97 3c
       -0.009293787 -0.0117711965 -0.0070333 0.018434789
000210 ea b8 9e bb c9 49 32 3c 86 13 0a 3a db 9c c0 bc
       -0.004843821 0.01088185 0.00052671914 -0.023512295
000220 b2 8d b6 3c 46 91 61 bd ed 08 c8 bc bd 7c 4b bb
       0.022284362 -0.055070184 -0.024418319 -0.0031049692
000230 29 60 22 bc 07 5b ec 3b 56 16 45 3c 9b 03 7b 3b
       -0.009910622 0.0072129997 0.012029251 0.003830171
000240 08 d0 d9 3b 07 2e 2e bd 0d 9f 48 bc b7 79 44 bc
       0.0066471137 -0.042524364 -0.012244952 -0.01199191
000250 f6 e5 ef 3b c8 a8 fd bb b5 1f 74 3c 19 7b 35 3c
       0.0073211147 -0.0077410676 0.014900138 0.011076712
000260 65 d1 d3 bc c3 17 79 bc a9 a8 30 bc 1a 7a 00 bc
       -0.025856683 -0.015203419 -0.010782399 -0.007841611
000270 9f 99 b8 3c 37 a6 42 3c 2f 0c a7 3c 56 a0 81 3b
       0.02253419 0.011880449 0.020391552 0.003955881
000280 74 72 93 3c 37 6b a7 3a 34 30 37 3c 63 db c9 bb
       0.017998911 0.0012773041 0.011180926 -0.006160186
000290 49 6d 01 3c 7d 37 93 ba 8b 1f 62 3d 22 16 06 3c
       0.007899591 -0.0011231747 0.055205863 0.008183988
0002a0 38 dc 6d bc bc 9b 02 bb dd d0 98 3c d0 86 e4 3c
       -0.014517836 -0.001992925 0.018654281 0.027896315
0002b0 8e bd 1f bc 4a bb 21 3b 81 52 9b 3c e6 db 08 3d
       -0.009749783 0.0024678283 0.01896024 0.033412836
0002c0 b4 14 53 bd 6a 77 46 bc a3 1e 8c 3c 01 85 a7 ba
       -0.051533416 -0.0121134315 0.017104452 -0.0012780727
0002d0 7a a6 56 3c 84 9e 0f bc b5 09 fa bc fa 97 97 3c
       0.013101215 -0.00876582 -0.030522207 0.018505085
0002e0 67 b0 59 3c d7 8b e3 3c a2 b6 cf bb d8 3d a5 3a
       0.0132866865 0.027776642 -0.00633891 0.0012606932
0002f0 63 c9 7b 3c 9e e6 d1 bb 36 62 93 bc df 4f da 3c
       0.015367839 -0.0064056655 -0.017991167 0.026649414
000300 b5 05 01 3b e1 b8 88 bb 5c cf 0b 3c 9e b0 95 3c
       0.001968724 -0.00417243 0.008533325 0.018272694
000310 62 48 84 ba ae 18 ac bc 08 10 d1 bb 29 17 e2 3b
       -0.0010092373 -0.021007862 -0.006380085 0.0068997336
000320 7c 63 d0 3b 0f 3e fb bb d5 e6 5e 3c 52 70 2c 3c
       0.0063595157 -0.00766731 0.013604839 0.010524826
000330 a0 eb 5d bd 5f b2 b0 bb f6 fd 5b bd 40 ea a0 bc
       -0.054179788 -0.0053923572 -0.053708993 -0.01964295
000340 4e a5 83 bc d8 87 d4 38 c9 e5 29 ba c1 2a ea 3b
       -0.016070034 0.000101342506 -0.0006481079 0.00714621
000350 b3 92 8a 3c 99 00 a5 bc a4 ee ed 39 a6 12 c0 bc
       0.016915655 -0.020141887 0.00045381964 -0.023446392
000360 5d c7 86 3c a3 66 61 3b 27 ed 92 bb 31 e6 b3 3c
       0.016452486 0.0034393452 -0.004483837 0.02196035
000370 f1 e1 6a 3c 09 0c 3a bb 24 d3 43 bc 2c 92 be bc
       0.014336095 -0.0028388521 -0.011952195 -0.02326306
000380 0e b1 a1 3c 51 03 2a 3c 3d a3 93 bc b9 a9 c8 3c
       0.019737747 0.010376767 -0.018022174 0.024494993
000390 2d 53 b1 bc 63 1d d1 bb 38 8c ea 3b 06 c9 35 bc
       -0.021646107 -0.006381677 0.0071578287 -0.011095291
0003a0 67 83 67 bc 4c 85 38 bd 10 78 06 3c 76 f3 90 3c
       -0.01413045 -0.045048997 0.008207336 0.017694216
0003b0 47 80 86 bc 9c e1 ec 3c 45 b3 c3 3b 98 50 3e 3b
       -0.01641859 0.028916173 0.0059722983 0.0029039737
0003c0 51 51 fb 38 65 15 08 3d 09 0b a0 3b ca 3d 03 3c
       0.00011983759 0.03322353 0.004884128 0.008010337
0003d0 56 b9 16 3c 01 51 8d bb 08 46 f8 3b 62 f1 00 3c
       0.009199461 -0.004312635 0.0075767078 0.00787005
0003e0 07 19 cd bb 4a 4a e5 3c ed bd c2 bc ae d4 ca 3b
       -0.006259087 0.027989525 -0.023772204 0.006189904
0003f0 26 ea 3c bc c7 c3 07 3d 06 15 26 bc fd 8b 11 bc
       -0.011530435 0.033145692 -0.010136848 -0.008883473

layer1.0.bias f4 [64]
000000 8e d5 52 3c b2 02 70 bc f6 5e e1 3b 14 11 c2 bb
       0.012868298 -0.01464908 0.0068777753 -0.005922446
000010 18 8b 89 3c 4b 34 1c bc dc 48 6c bc 91 7c b9 bb
       0.016789958 -0.009533952 -0.014421668 -0.0056606014
000020 a2 8f 85 3b 29 0d 4f bc 3a 3a df 3c fd 67 7c 3c
       0.0040759603 -0.012637415 0.027249444 0.015405652
000030 3d 44 41 3c 2e c0 c8 bc 4f 6d c0 bc 02 d0 dd 3b
       0.011796054 -0.0245057 -0.023489622 0.006769181
000040 b2 3d a0 bc 20 2c 06 bd 9c 35 b6 ba 06 1d 81 3b
       -0.019560669 -0.032756925 -0.0013901475 0.0039402274
000050 dc 02 90 3c 8b 19 d5 3c 48 96 01 3d af 67 b2 3b
       0.017579488 0.026013156 0.03163746 0.005444489
000060 6c 63 cb 3c 87 d1 c0 bb 2e 24 73 bc 46 90 28 bc
       0.024827681 -0.0058843526 -0.014840169 -0.010288304
000070 47 5c 09 3c e4 f6 cf 3c e6 c4 e2 bb 6f 01 9c 3c
       0.008383817 0.025386281 -0.006920445 0.019043652
000080 4b 7d e3 3b 7b 3e d7 ba 18 6b 90 bc 4c c7 8e 3c
       0.0069424263 -0.0016421819 -0.017629191 0.017429017
000090 56 6d 32 bb eb cf 0c 3d 1b 17 ee bc fa c6 f7 3c
       -0.0027225814 0.034377974 -0.029063752 0.030246247
0000a0 ef 37 3b 3b 74 25 33 3c 39 9d 7c bc 41 b2 06 3d
       0.0028567275 0.0109342225 -0.015418344 0.03288484
0000b0 ca 7c 3b bc 26 3d 30 3c ae 10 e6 bc d1 e0 9b 3c
       -0.011443326 0.010756766 -0.028084125 0.0190281
0000c0 dc 0b 07 3c 25 7d ce 3c 4b b0 01 bb 6d e3 a9 bc
       0.008242574 0.025206158 -0.0019788917 -0.020738328
0000d0 8a d7 8a bc a6 b3 39 bc 0b e5 eb 3b ae d9 d6 bc
       -0.01694848 -0.011334335 0.007198935 -0.026226845
0000e0 cb 4d 9f 3c 0a 64 e7 bb 3b 95 67 bc 26 7f b4 3b
       0.019446274 -0.007061486 -0.0141347 0.0055083213
0000f0 b0 4f 8c 3b 98 09 69 3a e4 8a 45 bc b4 60 23 3c
       0.0042819604 0.0008889674 -0.01205704 0.009971786

layer1.2.weight f4 [32, 64]
000000 73 cb c7 3d 15 67 e4 3d 40 47 b1 3c 1d 8c 01 3d
       0.09755602 0.11152474 0.02164042 0.031627763
000010 1b 34 98 3d 76 8d 5c 3d 9e f2 94 bd fb 26 13 3d
       0.07431813 0.053845845 -0.07272838 0.035925847
000020 0e 03 ae bd 3f d3 df bd 26 18 e7 bb b5 8b f4 bd
       -0.084966764 -0.10928964 -0.0070524393 -0.119407095
000030 9f 4e 65 3d 6b 4b 9d bc 04 e8 e1 bd 6e 2f e3 bd
       0.055983182 -0.019201001 -0.110305816 -0.11093031
000040 b1 fb c3 3d eb a7 e3 bd 7a 1d 13 3e 27 a1 8c bb
       0.09569491 -0.11116012 0.14366713 -0.004291672
000050 8a 55 0c 3e e8 1f 0b 3e d9 a8 9f 3c 12 e6 df bb
       0.13704506 0.1358639 0.019489693 -0.0068328464
000060 a0 04 27 3b 62 d9 30 bd 23 ef fb 3c d4 22 c0 3d
       0.0025484934 -0.043176062 0.030753678 0.09381643
000070 d1 e7 5d 3d 67 ed 16 bc ca 48 0d 3e ec 34 e1 3d
       0.054176155 -0.009211875 0.13797298 0.10996422
000080 54 e9 5a bc 23 16 0a 3e af 86 8f 3d 54 ff 46 bd
       -0.013361294 0.13485007 0.07008111 -0.048583344
000090 44 8d 70 3d 31 a2 d8 3d e0 09 95 bd 93 d6 98 bd
       0.05872847 0.105778106 -0.07277274 -0.07462802
0000a0 96 e8 d3 bd 61 5d e1 3d de 1a e6 bb 93 fc c4 bc
       -0.103470966 0.11004139 -0.007022246 -0.024046218
0000b0 d2 62 c8 bd 66 8a 6e 3c 92 68 92 3d 98 91 d0 3d
       -0.097844735 0.014559364 0.071488515 0.1018402
0000c0 ba 14 13 3e c0 42 d7 bd 2e 40 b1 3c 35 54 08 3e
       0.14363375 -0.105107784 0.021637049 0.13313372
0000d0 f1 ad ea 3d 1b 91 c9 3d 2d 54 48 3d 13 4b 4c 3c
       0.11458958 0.0984213 0.0489084 0.012469071
0000e0 95 49 b1 3d 94 6c e6 3d 62 89 e3 3d db 4d 10 3e
       0.08656613 0.112511784 0.11110188 0.140922
0000f0 71 9d 13 3d 97 20 c3 3d bc c0 9d bd 7f 81 58 3d
       0.03603882 0.095277004 -0.07702777 0.052857872
000100 96 b3 85 3d 84 0f 31 bc 7e e4 d3 bd 19 fa db bd
       0.06528394 -0.010806922 -0.10346316 -0.10741062
000110 d9 9e b7 bd 16 0c e8 3c bb 56 af 3d 91 63 bd 3d
       -0.08965845 0.028326076 0.085614644 0.092475064
000120 4a 64 7f 3c 2d 85 0e 3e 69 54 bc bc 54 bb 3b bd
       0.015587876 0.1391799 -0.022989469 -0.045832947
000130 cc 7e 89 3d e0 5c 4b 3d 35 61 b8 bc 86 e4 48 3d
       0.06713638 0.04964912 -0.02250729 0.049046062
000140 ff 37 66 3d 0c 63 eb bd 65 69 ca bd 66 bc d8 bd
       0.056205746 -0.11493501 -0.09883384 -0.10582809
000150 57 61 a4 bd e3 d0 20 3d 14 56 ef bd 9c de 94 bd
       -0.080263786 0.03926171 -0.1168634 -0.07269022
000160 5b 88 38 bd 1c 25 81 bb 29 b2 51 3d 0e 57 fe bd
       -0.045051914 -0.0039411914 0.051195297 -0.12418948
000170 bd 8c 89 3d f0 e6 fe bc 43 63 89 3d ce 0f f5 3d
       0.06716297 -0.031115979 0.06708386 0.11965905
000180 d1 62 d2 bb f4 10 f6 3d c3 d8 37 bd 02 32 d2 3d
       -0.0064204712 0.12014952 -0.044884454 0.102634445
000190 ed 45 43 3d a0 92 5f bb ef c1 5c bc eb 90 d4 3d
       0.04767411 -0.0034114495 -0.013473972 0.103792034
0001a0 48 f8 f3 3c ac 74 82 bc ba 28 a6 bd b8 2f f2 bd
       0.029781476 -0.015924774 -0.08113237 -0.11825508
0001b0 b9 4c ec bd 37 c8 78 3a 12 89 dc bd 01 6c f4 3d
       -0.11538071 0.00094902836 -0.107683316 0.119346626
0001c0 6c 93 32 bc ad c2 d4 bd 1d 7f 83 3c 65 b0 c9 bd
       -0.010899406 -0.10388694 0.016051823 -0.09848098
0001d0 fc 2c 52 3d 1b 88 0d bc d5 92 aa 3d 59 39 8f 3c
       0.05131243 -0.008638407 0.08328787 0.0174834
0001e0 da 73 57 3d f1 1a 26 bd 3c b0 17 3c 4c e1 06 bd
       0.05260072 -0.040553037 0.009258326 -0.032929704
0001f0 1f 03 98 3c 50 f2 ff 3d f4 27 bc 3d bf 4f d4 3d
       0.018556176 0.12497389 0.09187308 0.10366773
000200 3f 20 d2 bc 1c b0 ad 3c 03 35 96 3d 5c 18 0a be
       -0.025650142 0.02120214 0.0733433 -0.13485855
000210 7f e9 93 3d 40 4c d5 bd 47 cb ef 3d 4f 86 93 3c
       0.0722227 -0.10414934 0.11708694 0.01800838
000220 a4 3d d0 bd 8f d7 6a 3d 95 d2 e4 3d fd 80 e6 bd
       -0.10168007 0.05733448 0.11172978 -0.11255071
000230 7b b3 42 bd 3b 2c 3c bd 6e 25 a3 3b ce 70 98 bd
       -0.047534447 -0.04594062 0.004978827 -0.07443391
000240 c5 79 12 be 54 3e 11 be 53 df a4 bd d1 84 d0 3d
       -0.14304264 -0.14183933 -0.08050408 0.10181583
000250 4e e1 84 3d 91 db 9d bd 19 50 ff bd cd d4 dc bd
       0.06488286 -0.077078946 -0.12466449 -0.10782776
000260 6c 8d a5 3d 4e 88 59 3d e7 db fe 3d 91 ba 6b bd
       0.08083615 0.053108506 0.12444287 -0.05755097
000270 38 10 82 3d 80 c5 a4 bd 4c e0 99 3d c8 49 00 3e
       0.0635075 -0.08045483 0.07513484 0.12528145
000280 48 f6 89 3b af 92 cf bc ce 06 e2 bd 9d a5 b5 3d
       0.004210267 -0.025338499 -0.11036454 0.08869479
000290 3e 5a d9 3d 64 aa 25 bd c8 36 5e 3d 72 78 d9 3d
       0.106129155 -0.0404457 0.054251462 0.10618676
0002a0 39 c8 9e bd 37 da 6a 3d e2 66 60 bd 66 aa e0 bd
       -0.07753033 0.057337012 -0.054785617 -0.10970001
0002b0 a9 67 53 bc 0d 87 71 bd ae 94 8e 3d db b2 d7 bb
       -0.0129031325 -0.058966685 0.06961952 -0.0065826005
0002c0 2e bd 53 bd 2e 3b c0 bd ff 3b 9a bd 01 15 03 be
       -0.051694088 -0.09386288 -0.075309746 -0.12800981
0002d0 04 31 20 3d b0 75 bb bc 9a 2b a1 3d 28 f3 fe 3d
       0.039109245 -0.022883266 0.078696445 0.12448722
0002e0 e2 8d ae bd 52 96 d3 bd f9 bd 1f 3d 1b 06 dd 3c
       -0.08523156 -0.10331406 0.03899953 0.02698045
0002f0 0a 8e 5a bd 7e f2 a9 bd cd 07 f5 bd 86 32 d9 bd
       -0.053358115 -0.08298205 -0.119643785 -0.1060534
000300 14 a6 e0 bc bd fc bf 3c 1c b4 cf bd b7 9a d2 bd
       -0.027422942 0.023435945 -0.10141775 -0.10283416
000310 eb 57 25 bd 7d ef b5 3d 6c 45 f9 bd 9c f5 c0 3a
       -0.04036705 0.088835694 -0.12171444 0.0014721635
000320 e5 72 e9 3d 90 a3 9c 3d f5 87 53 bd 4c 7c 79 3d
       0.113988675 0.076483846 -0.05164333 0.060909554
000330 5d 16 f9 3d 6a e4 e0 3d 2d 97 b5 bd a7 07 15 bd
       0.121624686 0.109810665 -0.08866725 -0.03638425
000340 40 d4 55 3d b6 7b 12 bc e4 20 42 bc 8e 4e a2 3d
       0.05220437 -0.008940628 -0.011848662 0.07925139
000350 e0 d2 ad 3d 9d ba ba 3d ef 3c b3 3d 0d d6 e1 3c
       0.08487487 0.09117625 0.087518565 0.027567888
000360 f8 2f bd 3d 73 2d 0e bd c3 40 67 3d 1e de 0e 3d
       0.09237665 -0.034711313 0.056458246 0.034879796
000370 4c 88 23 3d 71 1f c7 3d 90 41 f4 bd 98 1a 9f bd
       0.039924905 0.09722794 -0.119265676 -0.07768744
000380 63 29 cd bd 88 a1 45 bd b3 f5 09 bd 88 0a f9 bd
       -0.100176595 -0.04824975 -0.033681583 -0.12160212
000390 e1 bc f4 bd 9f 89 88 3c 6a b5 80 bd b8 2b 02 3e
       -0.11950088 0.016667185 -0.06284602 0.1271199
0003a0 aa fb c4 bd b9 9c c6 bc 19 6c 8b 3d 46 42 e7 bd
       -0.096183136 -0.024244653 0.06807727 -0.112919375
0003b0 7d e5 1a bd a4 a1 40 3d 1e 55 04 bd 49 cb ce 3d
       -0.037816513 0.047029153 -0.032307737 0.10097367
0003c0 65 fe 89 3d e0 6c 02 3d 32 88 77 bd fb f1 9f 3b
       0.06737975 0.031842113 -0.06043262 0.0048811412
0003d0 6f 05 9e bd 45 5e 5e bd a0 1d 4b bd 65 0e e4 3d
       -0.0771588 -0.05428912 -0.0495888 0.11135558
0003e0 0f fe 03 bd d7 13 4d 3c d7 ec bb bc b2 c8 ca 3c
       -0.03222471 0.012516937 -0.022940082 0.024753902
0003f0 e2 24 e1 bd 71 a4 23 bd 0e 58 2f 3c b8 39 50 bd
       -0.10993363 -0.039951745 0.010702146 -0.050836295

layer1.2.bias f4 [32]
000000 99 1c ae bd 98 b3 4e bd c5 82 54 3d 72 d7 f9 bd
       -0.08501548 -0.050464243 0.051882524 -0.12199296
000010 40 7b d7 3d 08 58 42 bd f9 f7 a6 bd e7 a4 70 3d
       0.10521555 -0.047447234 -0.08152766 0.058751013
000020 d8 79 cd bd 57 67 25 3d 01 f8 7b bd cd 7c f5 3d
       -0.100330055 0.040381756 -0.06151581 0.119866945
000030 69 81 66 bd c0 44 1c 3d 28 16 64 3d 0e 8d 4d bd
       -0.05627576 0.038151503 0.055685192 -0.05018335
000040 90 4a 87 bd 85 a5 86 3d fb 90 d5 bd 6d 6f ae 3d
       -0.066060185 0.06574539 -0.104280435 0.085173465
000050 46 98 d8 3d 8a ca a4 bc f5 f0 c7 bc ab 96 82 3d
       0.10575919 -0.02011611 -0.02440689 0.06376394
000060 eb 51 b6 3d b9 7c b9 3d 99 5e 7b bb af f2 b2 bd
       0.08902343 0.09056992 -0.0038355945 -0.087376945
000070 a3 a9 a8 bd 24 27 66 3d 24 a5 87 3d 25 02 d9 3d
       -0.08235481 0.05618967 0.06623295 0.10596112

gcn1.weight f4 [32, 64]
000000 7e 08 8c 3e 10 ff e1 bd 5f 0e 81 3c 55 d8 4b be
       0.2735023 -0.110349774 0.015753923 -0.19906743
000010 54 4f 7e be 33 85 9a 3e d0 84 cc 3b 4d 2a 92 be
       -0.24834949 0.30179748 0.0062414184 -0.28547898
000020 e2 4c 15 3e 72 20 8e 3e 60 f4 25 3e 33 d0 87 be
       0.1458011 0.2775913 0.16206503 -0.2652603
000030 e2 84 46 3e e5 92 9d 3e bb 1a 18 be e1 ac 8d 3e
       0.19386628 0.30776134 -0.14853947 0.2767096
000040 76 11 57 be f4 df 9d be 75 55 63 3e f9 db 8b bd
       -0.21002755 -0.30834925 0.22200568 -0.06829066
000050 db b0 7c be 7e 2b 60 bd 21 ca 83 bd 4f 1a 3d 3c
       -0.2467684 -0.054728977 -0.064350374 0.011541917
000060 8d 0d 95 3e 55 98 61 be 9c 8a 54 3e e9 39 ba 3d
       0.291119 -0.22030766 0.20756 0.09093077
000070 e4 c9 dc bd fd b1 12 be 86 40 25 3e 37 af f9 3d
       -0.10780695 -0.1432571 0.16137895 0.12191623
000080 7c 16 03 bd 98 1c 9b 3e 12 e3 24 be bd a2 e0 3b
       -0.032003865 0.30295253 -0.16102245 0.0068553374
000090 1d 4a 83 bd cc d0 0a 3e 5b 79 1e be dc 8c 89 3e
       -0.0641062 0.13556212 -0.15475981 0.2686528
0000a0 b4 d6 57 be 9e 94 90 be c0 2d e6 3d fe dd 55 bc
       -0.21077996 -0.28238386 0.11239195 -0.013053415
0000b0 82 d4 5b be 1d c3 28 3e 30 14 94 be fd a5 1e be
       -0.21467784 0.1648068 -0.28921652 -0.15493007
0000c0 9c 8d 13 3e 83 c0 62 be c4 91 01 be ca b7 19 3d
       0.14409488 -0.2214375 -0.12653261 0.03752879
0000d0 9e 18 b1 3b 98 84 62 be 27 36 4b 3e 0d 2b 05 3d
       0.005404546 -0.22120893 0.19844876 0.03251176
0000e0 93 f0 d1 39 8d 3f 8b bd 96 83 68 3e bc 22 45 be
       0.00040042828 -0.06799231 0.22706446 -0.19251531
0000f0 e2 6d a0 bb f8 d4 16 be bc 67 9f 3e db b2 4c 3c
       -0.0048959116 -0.14729679 0.3113383 0.012493814
000100 f6 c2 ea 3d a5 0e 93 be 64 fc de 3b 66 26 8f 3e
       0.11462967 -0.2872211 0.0068049897 0.27958983
000110 7a c3 82 3e 59 9e 2a be fa 23 df 3d 98 d8 92 be
       0.25539762 -0.16661967 0.10895534 -0.28680873
000120 5b 03 d2 3d 27 07 28 3e 22 37 88 3e b8 d8 4e 3e
       0.10254546 0.16408978 0.26604563 0.20199859
000130 61 2e 04 bc 05 e4 a3 bd 12 73 82 3e 72 21 2b be
       -0.008067698 -0.08002476 0.25478417 -0.16711977
000140 e4 19 95 be e3 98 44 3e eb 1b b6 bd 75 f1 72 3e
       -0.29121315 0.19198947 -0.08892044 0.23724921
000150 61 aa 92 3e 5e ea d0 3d 27 60 70 be c3 e5 13 3e
       0.28645614 0.10200952 -0.23474179 0.14443116
000160 56 90 6d 3e f7 ca 26 be 56 c7 5e be 37 02 11 3e
       0.23199591 -0.16288362 -0.21755728 0.14161001
000170 d9 ec 8f be 4e d1 97 3e b4 80 ab 3d 54 e4 c9 3c
       -0.28110388 0.29651874 0.083741575 0.024645008
000180 1d eb dc bd 3d ac 63 3c 33 ef 87 be 82 21 9d be
       -0.10787032 0.013896045 -0.26549682 -0.30689627
000190 07 0a 46 be 66 c0 76 be 87 db e2 3d 7e 24 73 3d
       -0.19339763 -0.24096832 0.11077028 0.059360974
0001a0 6c f8 b8 bd 72 86 76 3e af e8 2c be 94 93 1e bd
       -0.09031758 0.24074724 -0.16885637 -0.03871496
0001b0 13 0d 51 3d b6 46 58 be ba ac 5f be e9 0f 5f bd
       0.05103786 -0.21120724 -0.21843234 -0.054458532
0001c0 cb 48 df 3d cd 35 45 3e 7e f8 45 be 82 0f 52 bd
       0.10902556 0.19258805 -0.19333073 -0.05128432
0001d0 64 10 49 3d 62 f0 09 be 42 c4 53 be 3f 14 62 3e
       0.049087897 -0.13470605 -0.20680335 0.22078036
0001e0 b3 e9 36 bd e9 83 46 be 86 03 67 3c 04 a9 6d be
       -0.044656467 -0.19386257 0.014099961 -0.23209006
0001f0 26 9a 97 bd ee ba 15 be a4 65 50 3e 22 6e b3 3d
       -0.07402448 -0.1462209 0.20351273 0.087612405
000200 0c f2 95 3e 74 fb 59 be 5b 50 45 3d aa 55 5e 3e
       0.2928623 -0.21287328 0.048172336 0.21712366
000210 4e fe ec bd 84 d4 d0 3d 7f b8 8c be 5d 1c 61 3e
       -0.11571942 0.10196784 -0.2748451 0.21983476
000220 68 8c 46 be 9b 0f 0a be 54 fd c8 3c 31 56 75 3e
       -0.19389498 -0.13482516 0.024534859 0.2395866
000230 f2 df 9d 3e d5 4b ac bd 11 d3 9e 3c 1c 11 0e be
       0.3083492 -0.08412901 0.019387754 -0.13873714
000240 03 92 35 bd 76 99 cd bd b6 a6 14 be 81 4d 7c 3c
       -0.0443287 -0.10039036 -0.1451672 0.015399338
000250 80 40 1a be 61 c9 9f bd 3f 7a b6 bb d2 c8 62 3e
       -0.15063667 -0.07802082 -0.005568772 0.2214692
000260 20 95 87 bd 46 0f e0 bd 96 6f 84 3e ec e8 05 3e
       -0.0662024 -0.10940413 0.25866383 0.13077134
000270 97 da 89 3e 51 f7 a5 3d 29 f4 64 3e ff 14 46 be
       0.26924583 0.081038125 0.22358765 -0.19343947
000280 d5 76 11 3e 58 b7 8e 3d aa 1a cf 3d cb 02 81 3e
       0.14205487 0.06968564 0.10112508 0.25197443
000290 09 56 d5 ba a0 d8 e8 3c f9 4a 80 3e 77 7b bb 3b
       -0.0016276251 0.028423607 0.250572 0.0057215053
0002a0 25 bb 64 be 71 84 db 3d e1 20 76 3e 95 10 4b be
       -0.22337015 0.107186206 0.2403598 -0.19830544
0002b0 24 b2 8b be 05 6e 63 be af fc 45 be e1 84 a2 be
       -0.27284348 -0.22209938 -0.19334672 -0.31742004
0002c0 ad ba 8d be 0f 87 3d be 84 9f 26 be 09 c0 00 be
       -0.27681485 -0.18508552 -0.16271788 -0.12573256
0002d0 9f 23 04 be 38 2d e8 bd 65 57 4d 3e 3c ad 11 be
       -0.12904213 -0.1133675 0.2005287 -0.1422624
0002e0 d3 21 61 3e ad 93 53 be 75 73 87 be 36 3c eb bd
       0.21985559 -0.20661803 -0.26455274 -0.11486094
0002f0 c6 ad 9a 3e 79 9d 41 be 0f bb 48 3e 28 80 d7 3d
       0.30210704 -0.18907727 0.19602607 0.10522491
000300 7e 97 34 3d db 90 87 3d 32 37 32 3e c3 e7 6a 3d
       0.044089787 0.06619426 0.17403868 0.05734993
000310 3b 3c 72 be fc 73 5a bd f5 11 4d 3e 30 a2 44 3e
       -0.23655789 -0.053333268 0.20026381 0.19202495
000320 26 40 8d bc db ea 75 be 16 02 97 be de cf 4c be
       -0.017242502 -0.24015372 -0.2949378 -0.2000117
000330 59 1c 3b 3e fa 54 3c 3d 0e ff 4f 3d 19 26 97 3e
       0.18272533 0.045979477 0.05078035 0.29521254
000340 93 11 4c 3e f5 1b 86 3e 33 b1 1b be a8 8b cb 3d
       0.19928579 0.26193205 -0.15204315 0.09938747
000350 81 bf 18 3e b0 a3 77 3e 17 43 31 3e 71 bb e7 3d
       0.14916803 0.24183536 0.17310749 0.113150485
000360 08 ea 16 be 62 42 0e 3e 45 e5 31 be 8c f1 be 3c
       -0.14737713 0.1389251 -0.17372616 0.023308538
000370 bd c9 b7 3d 2b da 8d 3e 28 2a 8c be c7 3e a8 3d
       0.089740254 0.2770551 -0.27375913 0.08215099
000380 c5 9a 9c 3d 4d 29 29 3e eb 00 5b 3e f0 49 60 be
       0.076467074 0.16519661 0.21387069 -0.21903205
000390 9c b6 0c 3e 5f d9 fb bd 08 d7 8b be ec fa 1c be
       0.13741535 -0.122973196 -0.27312493 -0.15330094
0003a0 09 07 73 3e 52 df 04 be d4 f9 8a 3d 2a b1 8e 3e
       0.23733152 -0.12975815 0.06785932 0.2786954
0003b0 d2 da 5d 3e d2 29 ea 3c 9d ce 63 be a3 57 70 be
       0.21665505 0.028584395 -0.22246785 -0.23470931
0003c0 cf c4 c3 3d 33 c9 b6 bd 50 4b 9c be fe f0 97 be
       0.09559023 -0.089250945 -0.3052621 -0.2967605
0003d0 c5 3f 08 be 40 90 38 3e 60 d4 87 3e a6 b5 81 bd
       -0.13305576 0.18023777 0.26529217 -0.06333475
0003e0 5f 23 73 3e 29 05 ec bd 9d ad 4a 3e da 0c 52 be
       0.23743962 -0.11524422 0.1979279 -0.20512715
0003f0 dd f9 99 3e 0c 4b a1 be d7 3c e3 3d 09 de 8a 3e
       0.30073443 -0.3150257 0.11095589 0.27122524

gcn1.bias f4 [64]
000000 eb de 7e 3a 0d f8 21 3c 70 da a2 bb bd 2f 19 3c
       0.00097225484 0.0098858 -0.0049698874 0.009349761
000010 fb a0 17 bb 2b 9b 3e bc 3a 64 92 3c 2c 79 18 bb
       -0.0023136723 -0.011633675 0.017870057 -0.0023265583
000020 a7 06 e7 3c 1e 3b 87 3c 7a 1a 56 3c 46 64 8d bc
       0.028201414 0.016507681 0.013067836 -0.017259728
000030 b5 81 01 bb 0b ce 98 3a a6 8c b9 3c 7f dc ae 3c
       -0.001976115 0.0011658085 0.022650074 0.021345375
000040 98 cc a9 bc 95 f5 1b bb 36 e2 62 3c a2 d4 45 bc
       -0.02072744 -0.0023797501 0.013847878 -0.012074621
000050 0d c1 91 bc c6 24 98 3b 1a 5f 13 bb 55 b7 ae ba
       -0.01779225 0.0046430556 -0.0022487105 -0.0013329784
000060 a2 a3 d8 bb 22 f4 83 bc a4 87 63 bc e1 58 8b bc
       -0.0066113034 -0.016107623 -0.01388732 -0.017010154
000070 98 6e 97 3b 73 7b c7 bb c4 7b 1c bc 5f 76 c6 bc
       0.004621338 -0.0060877143 -0.009550992 -0.024226366
000080 2b fe 1b bc fc 65 03 3c 8c 7b 35 3b ce 3f a0 3c
       -0.009521048 0.00801992 0.0027692048 0.019561674
000090 1e ea 2d bc 1a 98 d8 ba 7d aa 26 bc e1 bf 01 3d
       -0.0106149 -0.0016524822 -0.0101724835 0.03167713
0000a0 c0 1f 33 bc 1f e6 1a bc 63 05 86 bc 17 16 89 bb
       -0.010932863 -0.009454279 -0.01635999 -0.0041835415
0000b0 f0 a7 a4 3c 59 04 1c bb 7e 6b af 3c d4 de 34 bc
       0.02009961 -0.0023806302 0.021413561 -0.0110394545
0000c0 25 4b 0b 3c b9 97 30 bc 40 2e a3 3c bd 64 8d 3c
       0.008501803 -0.010778361 0.019919515 0.01725995
0000d0 f9 f0 0e bc 4f 8f 06 bc 85 b3 02 bb 9e 9a 31 bd
       -0.008724445 -0.008212878 -0.0019943428 -0.043360345
0000e0 5e 7a 3d bc fb fc b0 3c c9 c2 c2 bb 00 dd ac bb
       -0.011564819 0.021605005 -0.0059436304 -0.0052753687
0000f0 e7 12 9c 3b e8 d8 7d 3c 0c 9d ea ba 00 00 00 00
       0.0047629955 0.015493609 -0.0017899587 0.0

gcn2.weight f4 [64, 7]
000000 d9 ed d2 3e 8a da fc be c4 b7 06 bc 75 0b 1f 3d
       0.41197088 -0.49385482 -0.008222524 0.038829286
000010 4a 2a 19 bf 6d f7 39 3f f5 dd 00 3f 96 b8 40 3f
       -0.59830153 0.72643167 0.5033868 0.75281656
000020 50 aa 0e bf 28 3c 18 3f 97 02 66 3f ac a8 8a be
       -0.55728626 0.5946679 0.898477 -0.2708181
000030 a4 f4 14 bf 9c bf 4f 3f 29 72 e2 be d0 56 43 bf
       -0.5818579 0.8115175 -0.44227722 -0.7630434
000040 5d e3 0a bf c3 39 46 3f 42 31 eb be f2 e5 37 3f
       -0.5425318 0.7743189 -0.45936018 0.71835244
000050 41 ad d6 be c8 7e 59 bf 16 de 4e 3f e8 85 4c be
       -0.41929057 -0.8495908 0.80807626 -0.19972956
000060 bf 13 de 3e b5 2f 01 bf cf a8 2a 3f 78 2e d4 be
       0.4337444 -0.5046342 0.6666383 -0.41441703
000070 d7 7f 6c be c1 2f 67 3f 37 71 68 3e a0 e0 57 bf
       -0.23095642 0.9030724 0.22699438 -0.84327126
000080 ae a1 42 3f 6d e4 5b 3f 91 8c 2e 3f 1c a9 0c bf
       0.76027954 0.85895425 0.6818324 -0.5494554
000090 8b db 2e be 28 14 0a bf a3 1a 5e 3f a1 de 51 3f
       -0.17075936 -0.53937006 0.86759394 0.8198033
0000a0 d0 a8 75 be cb 87 b7 bc de 91 4a bf c4 a2 53 bf
       -0.23990178 -0.022403618 -0.79128826 -0.82670236
0000b0 22 d4 cb be c0 ad bb be 5e d4 36 3f c6 c4 6b 3d
       -0.39810282 -0.36655998 0.71417797 0.057560705
0000c0 11 22 eb 3e 7d af ee bd de 46 3c bf 22 c6 37 3f
       0.45924428 -0.116545655 -0.73545635 0.717867
0000d0 6f 42 74 be 64 d5 5e be 0c 19 b7 be 8b 3d a1 3e
       -0.23853467 -0.2176109 -0.35761297 0.31492266
0000e0 89 c6 3c be 10 9d 80 bd e4 fd 36 bf aa 5c 46 3f
       -0.1843511 -0.06279957 -0.71481156 0.77485144
0000f0 0a 70 cf 3e 03 9d 68 bf d9 7f a6 be 68 9d 62 bf
       0.40515167 -0.9086458 -0.32519415 -0.8852143
000100 7d a7 59 bf fa 24 5d 3f 70 98 8d be 07 bb 21 3f
       -0.8502119 0.86384547 -0.27655363 0.63176006
000110 67 23 26 bf bc b0 9e be db 7f dd 3e b2 eb ea 3d
       -0.6489777 -0.30994213 0.43261608 0.114707366
000120 ef 1d fe bd 4c f4 4d 3f 9e 99 ae be 87 5d 9c 3e
       -0.12408053 0.8045089 -0.34101576 0.30540106
000130 a3 ec 29 be f9 24 35 bf 1b 38 c9 3e 78 d1 38 3f
       -0.16594176 -0.7075954 0.39300618 0.72194624
000140 d7 f7 b4 3e df 9f 3f 3f 76 d7 17 bf 3f 86 db bd
       0.35345337 0.7485332 -0.5931314 -0.10718965
000150 1e 8f 21 3f 13 83 55 bf 2d 97 31 bf 62 e7 33 bf
       0.63109004 -0.8340313 -0.693713 -0.7027494
000160 ad eb dc 3c 7f 64 75 3e bf 37 4d bf 19 94 c8 be
       0.026967848 0.23964117 -0.80163187 -0.3917549
000170 46 81 17 bf 93 96 89 be 32 d8 7c 3e 48 f3 28 3f
       -0.5918163 -0.26872692 0.24691847 0.6599622
000180 28 f8 42 3f 1a 06 b2 be 63 09 e0 3d 22 3b 5f bf
       0.76159906 -0.3477028 0.109392904 -0.87199605
000190 08 7c 8f be c4 60 5b bf bd fa 53 bf ed 1b 94 bd
       -0.28024316 -0.8569453 -0.8280447 -0.07231889
0001a0 54 14 ae be ce 55 2d bf 0f 5c ba 3e 95 03 5d bf
       -0.33999884 -0.6770905 0.3639836 -0.8633359
0001b0 13 ca ad 3e d8 0a ee be fa 33 1a 3d e6 1d 23 3f
       0.33943233 -0.46492648 0.037647225 0.63717496
0001c0 21 92 0f bf 22 24 87 be a1 b4 0c 3f 69 75 ab 3e
       -0.5608235 -0.26394755 0.5496312 0.33488014
0001d0 a1 18 01 bd 0b b5 a0 bb ad bf bb 3e 9b 9c ef 3e
       -0.03151763 -0.0049043945 0.36669675 0.46799168
0001e0 c5 b0 52 bf 96 79 47 bf b8 f5 28 3f 7c 9c 14 be
       -0.8230098 -0.779199 0.6599994 -0.14512819
0001f0 5c 70 97 be 21 44 67 be e6 c0 03 3e 51 e4 44 3e
       -0.2957791 -0.22584583 0.12866554 0.19227721
000200 40 17 8f be d4 1b 68 3f 10 74 41 bf e6 39 5b 3f
       -0.27947426 0.9066746 -0.7556772 0.8563522
000210 bf 5e 06 bf 96 3a d6 be b2 21 30 bf 03 ed 97 be
       -0.5248832 -0.41841573 -0.68801415 -0.29673013
000220 18 3f f4 3e ab 0f 1a 3f 16 a2 c4 3e 75 ee 02 bf
       0.47704387 0.6018016 0.38404912 -0.51145107
000230 54 6b e3 be 33 b7 88 3d e5 a3 ee be af 3a a3 3e
       -0.44417822 0.066755675 -0.46609417 0.3188071
000240 a6 07 00 bf c9 e4 8d 3e de 48 0b 3e a6 e0 9a 3e
       -0.5001167 0.27713612 0.13602015 0.30249518
000250 34 d1 6b be 3f fb b1 be d9 9b c2 3e b3 f8 d4 be
       -0.23029023 -0.34761998 0.38009527 -0.41595992
000260 1f 3a d5 be da d2 5c 3e 21 b9 32 bf 23 65 44 3f
       -0.41645905 0.21564808 -0.69813734 0.7671682
000270 2f 40 06 3f 75 ea a0 3e ee b6 84 3e ee 04 20 3e
       0.52441686 0.31428877 0.25920814 0.1562688
000280 05 a3 ab 3e e8 73 6a bf 13 45 01 3f 54 e5 d5 be
       0.33522812 -0.9158311 0.50496024 -0.41776526
000290 12 ae 64 be cb 4a 31 3f ef 96 a2 be c2 71 67 3f
       -0.22332028 0.6925475 -0.31755778 0.90407956
0002a0 64 47 34 bf cc 41 4f 3e 3d d2 ed 3e b7 e3 67 3f
       -0.70421433 0.20239943 0.46449462 0.9058184
0002b0 e3 f3 f0 bd 87 b6 bb be 4f 14 34 3e 37 e9 1d 3f
       -0.11765268 -0.36662695 0.17585872 0.6168398
0002c0 24 cc d3 be ca 49 01 bf 0f 42 d8 3c cd 7f a0 be
       -0.41366684 -0.5050322 0.026398687 -0.31347504
0002d0 34 1f ba be 54 8a 42 3f 73 6b e5 3e a0 4b 78 3e
       -0.3635193 0.7599232 0.4480854 0.24247599
0002e0 fa 22 15 bf 8a 88 6d be 07 cb 86 3e 7a b4 af be
       -0.58256495 -0.23196617 0.26326773 -0.3431738
0002f0 36 37 2a 3f 06 95 68 3f c8 97 c5 3e 0d 9d 6e be
       0.66490495 0.9085239 0.38592362 -0.23302098
000300 ea 11 d2 3d d3 af c3 be f8 81 80 3e c3 6a 52 3e
       0.10257323 -0.3822008 0.25099158 0.20548539
000310 89 e8 f0 be 2f 80 2b 3f 50 73 8d 3e cb 8a 6a be
       -0.4705241 0.6699247 0.2762704 -0.22904508
000320 e3 41 45 bc 57 86 6a bf af 0a 8c 3e 99 14 63 3f
       -0.012039634 -0.91611236 0.273519 0.88703305
000330 a2 2d 7e be 5e 60 89 3e 86 9e 07 3e a0 06 16 bf
       -0.24822095 0.26831335 0.13244066 -0.5860386
000340 e3 5d af be 6e 1e f2 3e 69 27 16 3f 06 4b 06 bf
       -0.34251317 0.4728884 0.58653885 -0.52458227
000350 49 66 51 bf c1 52 d6 be 71 f0 9e 3e f5 34 5f bf
       -0.817967 -0.4186001 0.31042817 -0.8719018
000360 0f 17 03 3f 13 d9 4c 3f 8c 18 b7 be 90 b5 f9 be
       0.5120706 0.8001873 -0.35760915 -0.48771334
000370 b4 2b 5a 3f 1b a4 4c bf 71 06 15 3d 26 1b 43 3f
       0.85222936 -0.79937905 0.036383096 0.762133
000380 a8 bb cc be 8f 83 ca be d3 dc 4a 3f 1a 77 2f 3c
       -0.3998692 -0.39553496 0.792432 0.010709548
000390 55 98 4d 3f cd 7b 2b 3e df 47 89 3e 21 aa 52 3f
       0.80310565 0.16746445 0.26812646 0.82290846
0003a0 1e 2f 32 be 0f 8e 4d bd ec 6e 38 be 96 8a 45 bf
       -0.17400786 -0.050184306 -0.18011063 -0.7716459
0003b0 f6 5c 6b bf d2 be 3e 3f 4e 1b 1e 3f 31 7d 22 3f
       -0.9193872 0.7450992 0.61760414 0.63472277
0003c0 28 2c 67 bf a1 0e 23 bf f1 24 12 bf ee 0c 68 bf
       -0.9030175 -0.63694197 -0.5708762 -0.9064473
0003d0 a3 d1 01 3e 12 b4 8c 3e 46 8e ee 3d dd d9 73 3d
       0.12677626 0.27481133 0.1164823 0.059533942
0003e0 c8 9b fd bd cb 23 c8 3e 0e e2 c2 be 7d 85 bf be
       -0.123832285 0.39089808 -0.3806309 -0.3740653
0003f0 49 eb ef be f5 38 81 bc f8 aa 4a be fb 9a c8 3e
       -0.46859196 -0.01577423 -0.19791782 0.3918074

gcn2.bias f4 [7]
000000 70 49 cd bb fe de 23 bb 2e ce 98 3b 42 93 da 3c
       -0.006264858 -0.002500474 0.0046632504 0.026681546
000010 05 9f 1e bc d4 1c cc bc a3 ba df bc
       -0.009681468 -0.02491609 -0.027310675
