ptModel/best_model_cl_cora.pt (torch, 388996 bytes, 8 tensors)

layer1.0.weight f4 [64, 1433]
00000000: 2e59 1dbd 33fa 363c 7666 ca3a 1ad3 8b3c
00000010: 8ba9 2abd 4af6 4b3b 440b 003c 8090 38bd
00000020: e1bc c5bc 0212 0f3d db4a 69bc 7209 ca3c
00000030: 8137 e93c f50d 83bc 8fd0 253c 8a5c 5ebc
00000040: 7223 c8bc cce7 04bc 4238 db3b 34c0 953c
00000050: 2c09 80bc 4997 263d 8db6 f03b e80d 12bc
00000060: ea8c 5dbc 0608 11bc 3c4f 14bd ee23 22bc
00000070: 7df1 afbc 92d2 0e3d 12a0 b1bc c29f debc
00000080: e104 f5bb 7d91 b53b 1054 1a3c 8fb0 103b
00000090: de03 d6bb a0e0 c93b cb64 3a3c 6f1f 083d
000000a0: 4029 adbb 0eb9 903b 8a85 c53c 332c ccbc
000000b0: 4e00 c5bc 97ce 8a3b d624 633c 1451 303d
000000c0: 43ec ed39 6807 ca3b 1f50 663c 239e 273c
000000d0: 5d2f 813c 60d1 16bb 1c8e 223c e719 6cbc
000000e0: fc97 0f3d 7ddf a6bc 102e 023d 6707 263d
000000f0: af70 b3bb e594 10bc bcfa c2ba a9c4 2dba
00000100: 5360 e23c 9c18 b13c 103c d03c 4e4c a5bc
00000110: 5001 953c 1293 cf3a 24cc 1f3d 835f 15bc
00000120: a978 0d3b 86ff ab3c 8897 013d 55af 09bd
00000130: bc40 c9bb 5c0b d9bb 166e d9bb cfce 9a3c
00000140: 33f3 5a3b c33e a73b 697b 47bc 2a6a 01bc
00000150: bc52 ecba f03a 57bb 10af 0b3d 4ba9 18bc
00000160: b8e7 0ebd 15fb 133c 005b 19bb 9f58 853c
00000170: 8660 cf3b f98e 113b 531b 623c 9bf8 2e3d
00000180: cfac d7bc 2676 473c fd71 d73b 435d b8b9
00000190: 279b df3b 0d14 e63b b8bc a2bc 979c 0fbd
000001a0: 49c6 1e3c 8c26 0abd d5ae 3f3c 25bc 0bbc
000001b0: a798 51bc 377f 253d ca3e babc 31a1 5abc
000001c0: c37b 1e3d c207 81ba 6c60 a83c 4e1f ad3b
000001d0: fc71 b2bc 53fd 1f3c b0db a0bc d625 4dbc
000001e0: f05a c4bb 6d78 393c 9107 7bbc 575d d83b
000001f0: 27c1 dbbb 473f b7bb cddc 87bb 35bf f73b
00000200: 0296 0939 14d3 3abb fa1d 883a 4ed4 003d
00000210: cdaa 9a3b d092 dc3c ad44 883b 3d22 53bc
00000220: 1ddc 053d 9a7a 1bbd e7ba 04bd 9774 103c
00000230: dfd8 94bc 60b0 a0ba 4bb7 7b3c 04e4 17bc
00000240: 2978 01bb 9327 04bd a6af 0abc 150b 52ba
00000250: 46d4 203a c2c4 c9bb 2333 eb3c 4007 a33c
00000260: 62c8 84bc 02fc 3c3a 8f8a a6bc 091c de3b
00000270: 5010 163d 9ca4 c03c 9668 253c 410c cfbb
00000280: d918 f83b 9681 643c cdfa a43c 5683 e7bc
00000290: a3d0 333c a766 713c a6c6 353d 7794 94bb
000002a0: 04ee 89bb 868f c93b 6d47 33bb 1b7f c83c
000002b0: d8de 4e3a d2e8 433c 482f a83b f5a9 df3c
000002c0: e983 2bbd 3f2d 9dba d632 cc3c 9de1 173b
000002d0: 916d c43c c080 64bc 9492 97bc e96d 9fbb
000002e0: 83e1 fb3c 0bb8 52bc 8679 d83a 0e05 863b
000002f0: caa5 db3c 625f 78bc bd17 a7bc 5e79 7b3c
00000300: dea2 bfbb f7eb 11bb c7be af3c a5f0 b83c
00000310: 8770 96bb d0ec c8bc 930b 003c f4da 5f3c
00000320: 0b09 803c 9626 ecbb d25d f2bb 0ac4 643c
00000330: 76d6 36bd e3dc 1e3c f77b 17bd 4c10 91ba
00000340: 83a0 4fbb 70ec bd3b 4f19 b13a c8cd ad3c
00000350: ad9f 003d 0271 8bbc 9f84 233b eea5 29bc
00000360: 0b59 093c 41df 843c 7a47 5ebb 82af 193d
00000370: f170 003d 436e 263c 896f a1bb 3fc1 babc
00000380: 1c34 4d3b 5de5 813c 3615 ffbc 27c5 1f3a
00000390: 0cd8 fabb 1835 853c 0d0c 903b 3c48 8dbb
000003a0: 222e a7bc 6660 f4bc 969a 033c f2de 333c
000003b0: 18de c9bc f80f 473d 2da3 163b 173a 8d3c
000003c0: 9be1 c63b a149 2f3d 47ec 403c 0c3b a93b
000003d0: a515 82ba 653f 713c e22d 283c 1c30 05bb
000003e0: c2d3 bcbc 4426 293d d55c 59bc 5837 b13c
000003f0: 20b6 8c3a 8b91 053d ed7c 19bc 894a 023c
-0.038415127 0.011168051 0.0015441913 0.017068435 -0.041665595 0.0031122142 0.007815186 -0.04505968
-0.024137916 0.034929283 -0.014239038 0.024662707 0.02846885 -0.015997866 0.010120525 -0.013571868
-0.024430964 -0.008111905 0.006690056 0.018280126 -0.015629373 0.04067162 0.0073459805 -0.008914448
-0.013522366 -0.008852011 -0.036208376 -0.009896262 -0.021477455 0.034868784 -0.021682773 -0.027175788
-0.0074773883 0.005541025 0.009419456 0.0022077893 -0.0065312227 0.0061608106 0.01137657 0.033233102
-0.0052844584 0.0044165915 0.024111528 -0.02492342 -0.024047997 0.004236053 0.013863763 0.043046072
0.0004538019 0.0061654337 0.014057188 0.010230574 0.015769655 -0.002301298 0.009921577 -0.0144104725
0.035057053 -0.02037024 0.03178221 0.040534403 -0.0054760794 -0.008824562 -0.001487575 -0.0006628731
0.027633822 0.02161818 0.025419265 -0.020177986 0.018189102 0.0015836677 0.039013043 -0.00911701
0.0021586812 0.020995867 0.031638652 -0.033614475 -0.00614175 -0.0066236686 -0.0066354377 0.018897442
0.0033409118 0.0051039173 -0.012175419 -0.007898847 -0.0018030028 -0.0032841526 0.0341025 -0.009317706
-0.034888953 0.009032031 -0.0023400187 0.01627761 0.006328645 0.0022210462 0.01380046 0.042717557
-0.026327519 0.012174165 0.0065748678 -0.000351647 0.0068239155 0.007021433 -0.019865379 -0.035061445
0.00969083 -0.033728167 0.011699398 -0.008528744 -0.012792743 0.040404525 -0.022735018 -0.013344095
0.038692247 -0.0009844231 0.02055379 0.005283273 -0.021782868 0.009764987 -0.019636005 -0.012521228
-0.005992286 0.011320216 -0.015321628 0.006602924 -0.006706375 -0.00559226 -0.0041461946 0.0075606355
0.0001312122 -0.002850716 0.001038491 0.03145247 0.004720068 0.026925474 0.0041585774 -0.012886581
0.03268062 -0.03795872 -0.032404806 0.00881686 -0.018169818 -0.0012259595 0.015363525 -0.009270672
-0.001975546 -0.032264303 -0.008464729 -0.00080125156 0.0006135147 -0.0061574886 0.028710907 0.019900918
-0.016208831 0.0007209183 -0.020329742 0.0067782444 0.03663665 0.023515992 0.010095736 -0.0063185995
0.0075713214 0.013946911 0.020139122 -0.028260868 0.010975036 0.014733947 0.0443789 -0.0045343
-0.004209282 0.0061511425 -0.0027355806 0.024474671 0.00078914827 0.011957364 0.0051325895 0.027302722
-0.041873846 -0.0011991634 0.024926584 0.0023175247 0.023978027 -0.013946712 -0.018502511 -0.0048653972
0.03074718 -0.012861262 0.0016515709 0.004089958 0.026812453 -0.01515946 -0.020397061 0.01534876
-0.0058482727 -0.002226589 0.021453274 0.022575686 -0.004591051 -0.024526983 0.0078152595 0.013663042
0.015629312 -0.0072067482 -0.007396438 0.013962755 -0.04463812 0.009696218 -0.036983456 -0.0011067479
-0.0031681366 0.005796008 0.0013511571 0.021216288 0.03140228 -0.01702166 0.0024950875 -0.010354502
0.008383046 0.016219737 -0.0033917115 0.037520893 0.03135771 0.010158124 -0.004926626 -0.022797225
0.0031311577 0.01585644 -0.031138044 0.00060947466 -0.0076551493 0.016260669 0.004395968 -0.0043115895
-0.02040774 -0.029831123 0.008032462 0.010978447 -0.024642035 0.048599213 0.0022985444 0.017239613
0.0060693747 0.042794827 0.011775083 0.0051645096 -0.0009924663 0.014724587 0.010264846 -0.0020322865
-0.023050193 0.04129626 -0.013266762 0.021632835 0.001073543 0.032609504 -0.0093681635 0.007952341

layer1.0.bias f4 [64]
00000000: 551a ab3c b530 91bc 2620 253c abec 54bc
00000010: 98a3 7b3c 04c9 28bc e8fd 23bc 5fb1 593b
00000020: 71e8 f93b 6654 28bb ff62 ad3c beae 463c
00000030: 877d 9a3c ff32 77bc 113f 81bc efd3 7d3c
00000040: c3c1 95bc 6365 b9bc 6129 cbbb 3e5d 283b
00000050: f8e3 893c 36fc d63c 6ddb 043d c524 823b
00000060: d292 a83c a274 fabb 8520 5fbc 7c4e 71bc
00000070: 25f9 303c 009d d33c c6d1 95bc 1b5e bb3c
00000080: 6223 3c3c 5fa1 33b8 f425 2dbc fb9e 943c
00000090: f01e cabb 9fc7 ff3c 0e62 c4bc 06cf 1a3d
000000a0: 0388 923b b3b8 543c 9fa3 eebc a8bd f13c
000000b0: 72b9 9ab9 b1e9 873c 3b57 b5bc 4a9f 9d3c
000000c0: f5c3 043c 8830 fc3c dccb b0bb e582 b7bc
000000d0: 8826 04bc 968d 21bc 3e40 4b3c e675 9dbc
000000e0: 2d41 e03c 1284 80bb 8a74 91bc a45f df3b
000000f0: 5dfd 23b9 432b 283b 1d2e 2cbb 1d5e 023c
0.02088658 -0.01772342 0.010078466 -0.012995879 0.015358828 -0.010301832 -0.010009266 0.0033217294
0.007626586 -0.002568507 0.02116537 0.012126623 0.018858684 -0.015087842 -0.015777143 0.015492423
-0.01828087 -0.022631353 -0.006200001 0.0025690342 0.016832337 0.02624331 0.032435823 0.0039716684
0.020577822 -0.0076432982 -0.013618593 -0.014728185 0.010801588 0.0258317 -0.018288504 0.022872021
0.011483045 -4.2827214e-05 -0.010568131 0.018142214 -0.006168239 0.031223116 -0.023972537 0.03779509
0.0044717803 0.012983489 -0.029130755 0.02950938 -0.00029511336 0.016590925 -0.022136321 0.019240994
0.00810336 0.03078486 -0.0053953957 -0.022401283 -0.008065827 -0.009860417 0.012405453 -0.019221257
0.027374828 -0.003921994 -0.017755765 0.006816821 -0.00015639277 0.0025660552 -0.0026272603 0.007957009

layer1.2.weight f4 [32, 64]
00000000: 8be2 b03d d22e ca3d 982f 2f3c 87ba 9b3b
00000010: 396f 823d 1206 293d 60b5 abbd d9d6 cd3c
00000020: d7b2 c6bd 81ed f9bd 9af3 cabc 8e73 eebd
00000030: ceff 2f3d 72ba f7bc 8471 eebd a588 f8bd
00000040: b41c be3d 4dcb cebd 6a4f 053e 1bf2 8abc
00000050: cdca fc3d b07e f93d c9d0 ff3b a7cf a9bc
00000060: 5a26 43bc 8842 68bd 4f70 933c daf1 d43d
00000070: a3ba 1d3d f180 bebc a867 f73d fc05 c93d
00000080: a32b cbbc 7275 f63d 0e68 743d 6d95 77bd
00000090: 886e 393d dacf bf3d a81d a9bd 77ad b0bd
000000a0: b5dd cdbd a777 bd3d 08da c0bc 32e0 12bd
000000b0: 97a1 ddbd 8eaa 8d39 c12f 823d 9204 b43d
000000c0: 9184 053e ad04 e4bd d4d9 103c 5588 043e
000000d0: 927d f33d d3e7 af3d 4394 143d 8b37 1dbb
000000e0: 8d43 9e3d d0ba ec3d bc5f c73d f1b4 063e
000000f0: 1e6f c53c e310 b73d 456a b0bd 95e2 2a3d
00000100: a0fd 9f3d 1515 4dbb 09c6 aebd 821e d8bd
00000110: 98aa a0bd 4611 133d 725e bb3d d1b8 be3d
00000120: 1525 ed3c 729e 083e d82c 4bbc 6b02 08bd
00000130: b93a 9a3d cf2f 653d 86a7 65bc 4477 6f3d
00000140: 851e 873d dd65 dabd 7730 babd 90b8 c4bd
00000150: e6ac 9fbd d4d5 373d f016 e4bd d384 9abd
00000160: 7452 4abd a0fd dc3b 3a69 7a3d 3a2a dfbd
00000170: 5c2b 893d 295c 12bd b349 8f3d 4d93 003e
00000180: 1ab1 dd3b f604 043e 3046 fabc e691 ed3d
00000190: 3f50 6f3d e45f 883b 115a 0c3b d52c e03d
000001a0: af54 233d 9975 8cbc 632b d3bd ba6c dcbd
000001b0: 741e d9bd c074 f43b 03a7 d6bd 90ad 013e
000001c0: ccf0 6d38 1aee bfbd 623c cc3c dfb9 b0bd
000001d0: 4dc1 773d 0a0d 4d3b 56eb c03d caf7 863a
000001e0: f728 833d 0402 fdbc 9e79 933c 73c7 96bc
000001f0: f7cc f23c 7fd8 0d3e c8d2 cf3d 51f1 f43d
00000200: 9eec c9bc 5c0c a03c 7f1e 923d 0f4b bcbd
00000210: 94b2 943d 903a d6bd 3e9c f73d 7b16 8a3c
00000220: 5364 cfbd b3aa 6c3d 42d5 e43d 2b3f e1bd
00000230: 0e7e 38bd 0392 2ebd 6a22 2b3c 1855 93bd
00000240: dd23 0abe 35d1 09be 963f abbd 924d d43d
00000250: 86c6 863d 1402 9cbd 53f9 fdbd 5890 dfbd
00000260: 9725 ab3d 71a6 513d 3fdc fc3d 61db 2abd
00000270: fcc9 7b3d daa0 a8bd 9ea1 8e3d f858 023e
00000280: b72d 653b 85f4 ecbc 45da e0bd 74ae b73d
00000290: fa2b d33d fd0c 1fbd f2b6 503d 67e8 d93d
000002a0: 4533 94bd 4386 6c3d d9f0 3abd be75 d7bd
000002b0: 3bde ecbb 6065 78bd 92a3 9b3d b007 13bc
000002c0: a464 58bd 7091 babd f13e a4bd 784c 01be
000002d0: 8589 353d 1cde c3bc 7138 a23d 507e 003e
000002e0: 894b adbd 4204 d1bd 585b 213d c63a f53c
000002f0: 200e 56bd d3a2 b3bd 7617 efbd 4d82 debd
00000300: ad63 cfbc b427 003d 4c85 e1bd b7d8 75bd
00000310: 40a2 14bd 9407 c43d 3c7c febd 5156 96bb
00000320: db84 e53d dc68 963d 259f 48bd bf6a 9a3d
00000330: 5b76 053e 962c e03d 8959 cdbd c594 11bd
00000340: 49d5 8c3d b916 9e3a 200f 69bb 78af ae3d
00000350: 8c39 c13d 669b cc3d 6ecb bf3d 44c1 c63c
00000360: 8c1d be3d e19a 13bd 1916 593d a9e7 603d
00000370: 431a 413d df84 d53d 1950 e3bd a510 babd
00000380: 0df5 cbbd 8566 2fbd 930d 27bd 9556 01be
00000390: 00e0 fabd ceac bf3c 6694 90bd e30c ff3d
000003a0: 1dad a3bd ce5c 39bc b80a c23d 642b d5bd
000003b0: 65e3 20bd 654b 2c3d 4d45 11bd 0320 db3d
000003c0: 3b1b 943d cfd4 283d 5f9c 47bd 0b0c 203c
000003d0: 5470 89bd 5a4b 4fbd bb91 4dbd d3c4 f03d
000003e0: 4d37 20bd 13d4 a53c 6d05 bdbc 4dc1 f23c
000003f0: 79d6 d5bd f721 26bd b989 a13c 0dda 42bd
0.0863696 0.098722115 0.0106925 0.0047524604 0.0636887 0.041265555 -0.08384204 0.025126861
-0.0970208 -0.122035034 -0.024774361 -0.11643134 0.042968564 -0.030240271 -0.11642745 -0.12135438
0.092828184 -0.1009737 0.13018575 -0.016961148 0.12343369 0.12182367 0.0078068716 -0.0207289
-0.011910999 -0.056704074 0.017997889 0.10397692 0.03850807 -0.023254843 0.12080318 0.098155946
-0.024801081 0.1203412 0.059669547 -0.060445238 0.045271426 0.093658164 -0.082576096 -0.08626836
-0.10052053 0.092513375 -0.023541465 -0.03585834 -0.108218364 0.0002702069 0.063567646 0.08789934
0.13038851 -0.11133704 0.008840997 0.12942632 0.11889185 0.08589139 0.036274206 -0.0023989405
0.07727728 0.11559069 0.09735057 0.13154961 0.024100836 0.08938768 -0.08614019 0.04171999
0.07812047 -0.0031293083 -0.08533866 -0.10552694 -0.07845038 0.035905145 0.091488734 0.09312595
0.028948346 0.13341692 -0.012400828 -0.03320543 0.07530732 0.055953797 -0.0140169915 0.05846335
0.06597618 -0.1066396 -0.09091275 -0.09605515 -0.0779665 0.044881657 -0.111371875 -0.075448655
-0.04939504 0.0067441016 0.061135508 -0.10896726 0.06697723 -0.035732422 0.06996479 0.12556191
0.006765497 0.12892517 -0.030551046 0.116000935 0.058426138 0.0041618217 0.0021415988 0.10946051
0.039875682 -0.017145919 -0.1031101 -0.107629254 -0.106015116 0.0074602067 -0.10481074 0.12663865
5.6729463e-05 -0.09371586 0.024931137 -0.08629202 0.06048708 0.003128829 0.09419887 0.0010297236
0.06404298 -0.03088475 0.018002328 -0.018405652 0.02963875 0.13852118 0.10147625 0.1196009
-0.02464896 0.019537143 0.07134723 -0.09194004 0.072606236 -0.10460389 0.12090348 0.016856423
-0.10126557 0.05777998 0.11173488 -0.109983765 -0.04504209 -0.042619716 0.010445217 -0.07193965
-0.13490243 -0.13458712 -0.083617374 0.10366358 0.06580834 -0.07617584 -0.124010704 -0.10916203
0.08356779 0.05118412 0.12346696 -0.041713122 0.061471924 -0.08233805 0.0696442 0.12729251
0.0034969875 -0.02892519 -0.109791316 0.08968821 0.10311122 -0.038830746 0.05095572 0.1064003
-0.072363414 0.05774523 -0.045639846 -0.105205044 -0.0072286404 -0.060643554 0.07599558 -0.008974001
-0.052830353 -0.09109771 -0.080198176 -0.12626827 0.044320602 -0.023909621 0.079209216 0.12548184
-0.08461673 -0.1020589 0.039393753 0.029935252 -0.052259564 -0.08771291 -0.11674397 -0.10864697
-0.025316084 0.031287864 -0.110117525 -0.06002113 -0.036287546 0.09571758 -0.124260396 -0.0045879264
0.11206981 0.07344219 -0.048979897 0.075398915 0.1303343 0.10946004 -0.10026843 -0.03554227
0.068766184 0.0012061215 -0.0035561994 0.08529562 0.09434804 0.099905774 0.09364973 0.024262078
0.09282979 -0.036036376 0.05299959 0.05490843 0.047144186 0.10425734 -0.11099262 -0.09085206
-0.09958849 -0.04282238 -0.04078443 -0.12630685 -0.12249756 0.02339783 -0.07059555 0.1245363
-0.07992003 -0.01131363 0.09474701 -0.10408667 -0.03927936 0.04206409 -0.03546648 0.10699465
0.07231756 0.041218575 -0.04873311 0.009768496 -0.06710878 -0.05060897 -0.050187808 0.11756291
-0.03911524 0.020242726 -0.023073876 0.029633189 -0.10441298 -0.040559735 0.019718992 -0.04757123

layer1.2.bias f4 [32]
00000000: 2bcc c7bd a577 20bd adc8 563d efc8 f0bd
00000010: 839c dd3d bdb7 51bd c546 a7bd 5eaf 703d
00000020: da4e cbbd c38d 353d fe5c 67bd 5495 fa3d
00000030: e449 7ebd 5d23 403d 7f1b 6e3d 13ff 26bd
00000040: 45af 86bd 7849 853d 68ba d1bd 5dbd b53d
00000050: de90 dc3d 220b a4bc 925e cebc a477 853d
00000060: a23d bc3d 159e c23d f63c ec39 bc7a babd
00000070: f119 97bd eeb6 473d bc1f 913d 9aba df3d
-0.09755739 -0.039176602 0.052437473 -0.11757075 0.10820868 -0.051200617 -0.08167795 0.058760993
-0.09927149 0.044324648 -0.05648517 0.12235513 -0.062082186 0.046908725 0.05813169 -0.0407706
-0.06576399 0.06508154 -0.10240632 0.08874009 0.10769819 -0.02002484 -0.025191579 0.0651696
0.09191443 0.09502808 0.00045058847 -0.09105441 -0.07377995 0.04875844 0.07086131 0.10924263

gcn1.weight f4 [32, 64]
00000000: cef4 8b3e 4c57 f4bd fa7c 023d e7d4 40be
00000010: 7bd9 74be 5f94 9a3e c7d0 493c 507c 8cbe
00000020: fd97 fe3d de3c 953e 9ab1 2a3e 081d 81be
00000030: 5a79 2e3e 5466 a03e 95a6 17be 14ee 693e
00000040: 53d0 4bbe 31f3 96be b463 6d3e 6138 8cbd
00000050: 3c2a 7abe f2b6 63bd fff5 4ebd afb7 a03c
00000060: 65f5 933e 6e5a 67be 275f 463e dd5e a73d
00000070: 7f42 c6bd 7454 0dbe e264 1d3e 85fe 0a3e
00000080: 93df 02bd 2127 973e 95f0 31be e15e 6fbb
00000090: c7ae 84bd 00ca 123e 1782 2cbe 5dec 8d3e
000000a0: 6e28 5dbe e8d1 8abe 0335 ea3d e070 343a
000000b0: 7c84 4ebe 4452 2e3e 8a86 95be 0d6e 26be
000000c0: 4c08 053e 8c79 69be 87e1 0dbe 9a43 3e3d
000000d0: 4f30 b4bb 7efc 65be ec43 573e c8cd 693d
000000e0: be66 ff3a 8bb8 64bd 97b4 693e 3f38 56be
000000f0: b5fa 53bc 1037 09be 48e7 9a3e dbb2 4c3c
00000100: 64ab d23d 2dae 94be fd85 813c 2d61 8b3e
00000110: 27e3 863e c8bd 2abe 83b6 c43d 35d9 8fbe
00000120: 02ba d33d 7bae 223e 8be7 873e 6eb9 5b3e
00000130: 922b 1cbd 4a32 c5bd 8a05 823e cf98 dabd
00000140: 5b20 91be 1871 3b3e 7a9c b6bd c331 743e
00000150: 2620 8f3e 460b cc3d 7d02 65be 12f4 1a3e
00000160: c6a2 723e 28fa 1ebe f2bc 68be 808c 183e
00000170: ce44 90be 6fae 953e 7f60 c13d 61a0 113d
00000180: ad33 ddbd a62d 133c 4831 8bbe 73a8 99be
00000190: ad9f 31be 01e2 73be 6bf4 dd3d 4de5 653d
000001a0: cbed cabd 1422 7d3e 8709 49be 408e d4bc
000001b0: 17b7 853d c859 63be c1b8 3bbe 3c6c 4fbd
000001c0: 75c2 9d3d 26b6 4b3e 66bb 4ebe 9007 21bd
000001d0: 35a9 4a3d fb8d 06be 9d2d 4bbe 506b 593e
000001e0: b595 3abd 3f14 48be c9ec 303b 1266 73be
000001f0: f176 aabd a062 0fbe 499e 573e 226e b33d
00000200: 1afd 8e3e 561d 55be cbc2 703d 31e8 633e
00000210: 3ffb 02be e3ab d03d 52e5 86be 574f 5b3e
00000220: 4077 2bbe 1cdb 10be 996e 0f3d 241c 7f3e
00000230: 3744 8d3e ad3e afbd 8111 093c 9612 c8bd
00000240: e7df 0ebd ef38 b1bd 11be 1bbe 8538 9d3c
00000250: 95d5 1cbe f488 69bd e104 8a3b 9457 693e
00000260: b8f5 7cbd 109e d9bd 66e4 893e d7ea 083e
00000270: 0a3d 8f3e 2926 933d 3a24 683e c754 54be
00000280: fd61 113e 56fc 823d 75f8 cc3d c365 883e
00000290: 5672 393c c6e3 563c 7673 7c3e 8ad2 a7bb
000002a0: 3956 64be e9e9 d63d 052f 5c3e 77f1 3cbe
000002b0: 221c 86be 34c8 62be e8a3 2abe 34ee a1be
000002c0: 9225 91be 4fce 35be 18e5 1abe 387e 0abe
000002d0: 139c f3bd 893f e1bd f3b4 403e 694d 2abe
000002e0: fbc7 603e 2282 42be a967 8fbe 7145 05be
000002f0: 7ee6 983e 8b3e 47be e12c 4b3e 2880 d73d
00000300: 2817 183d 8af6 963d 5618 263e d3ad 713d
00000310: b522 7dbe 2143 5bbd d1f2 433e 60a6 413e
00000320: baa2 74bb c238 72be c54c 93be 4519 54be
00000330: e9de 4c3e cf08 203d 98a8 3f3d 46c3 9f3e
00000340: ec44 463e d26e 8d3e 4167 17be 4876 cc3d
00000350: 8336 1c3e 6d17 783e 61b2 233e 0a19 df3d
00000360: 3a0a 14be 8f03 083e 302d 31be 8d1a 8f3c
00000370: 2646 c93d 2de2 8e3e 4425 90be 1977 8b3d
00000380: 4b83 9c3d 6d6e 2e3e 7518 5d3e 5f8b 59be
00000390: 548a 033e 00c7 f9bd d104 8dbe 8d8a 16be
000003a0: cd59 6f3e c71c 0bbe 8d58 633d adae 873e
000003b0: 3b65 5c3e bda6 053d bf26 48be 4e77 78be
000003c0: 6797 c43d ee0b c1bd e544 96be 0f4b 9dbe
000003d0: b949 0ebe 1217 353e 54b3 883e b987 b6bd
000003e0: b197 723e 6b36 e2bd e175 4d3e cf55 45be
000003f0: dc01 9a3e 3532 a0be 9c8b d23d 09de 8a3e
0.2733521 -0.11930713 0.03185747 -0.18831216 -0.23911087 0.30191323 0.012317843 -0.27438593
0.12431333 0.29148 0.16669312 -0.25217462 0.1703848 0.3132807 -0.1480964 0.22844726
-0.19903688 -0.29482415 0.23182565 -0.06846691 -0.24430174 -0.055594392 -0.05052757 0.019618837
0.2889816 -0.2259309 0.19372235 0.081723906 -0.09680652 -0.13801748 0.15370515 0.13573654
-0.0319515 0.2952204 -0.17376931 -0.0036525058 -0.06478649 0.1433487 -0.168465 0.27719393
-0.21597454 -0.2711327 0.114358924 0.0006883275 -0.20167726 0.1702357 -0.29204208 -0.16252919
0.12991446 -0.22800273 -0.13855563 0.04645119 -0.005498923 -0.224596 0.21022004 0.057081014
0.0019485576 -0.055840056 0.22822796 -0.20919894 -0.012938191 -0.13399911 0.3025458 0.012493814
0.102865964 -0.29039136 0.01581096 0.27222577 0.26345178 -0.16673958 0.09605124 -0.28095403
0.103382125 0.15886872 0.2654384 0.21457455 -0.03812749 -0.096287325 0.2539485 -0.10673677
-0.28344998 0.1830486 -0.08916564 0.23847108 0.27954215 0.09963088 -0.2236423 0.15132168
0.23694906 -0.15525115 -0.22728327 0.14897346 -0.28177494 0.29234645 0.09442233 0.03555334
-0.10800872 0.008983051 -0.27186036 -0.3001133 -0.17346068 -0.23816682 0.10837635 0.05612688
-0.09908637 0.24720031 -0.1963254 -0.025946736 0.06529062 -0.22202218 -0.18332197 -0.05064033
0.07703105 0.19893703 -0.20188674 -0.039313853 0.049477775 -0.13140099 -0.19841619 0.21232343
-0.045552928 -0.19538973 0.0026996604 -0.23769405 -0.083234675 -0.14002466 0.21056475 0.087612405
0.27927476 -0.20811972 0.05877952 0.22256543 -0.12791155 0.10189035 -0.26346833 0.21416984
-0.16744709 -0.14146084 0.035017584 0.24913079 0.27591106 -0.08556876 0.00836599 -0.0976917
-0.0348815 -0.08653437 -0.15209223 0.01919199 -0.1531585 -0.057015374 0.0042120074 0.22787315
-0.061757773 -0.10625851 0.26932067 0.13370834 0.27976257 0.07185013 0.2267007 -0.20735465
0.14197536 0.063957855 0.10008327 0.26640138 0.011318764 0.013115829 0.2465342 -0.0051215338
-0.22298516 0.104938336 0.21502312 -0.18451487 -0.2619334 -0.22146684 -0.16664088 -0.31627047
-0.28348976 -0.17754482 -0.15126455 -0.13524711 -0.11895003 -0.109984465 0.18819027 -0.16631092
0.21951286 -0.18994954 -0.28008774 -0.13014771 0.29863352 -0.19457452 0.19841339 0.10522491
0.03713146 0.07371242 0.16220221 0.059003662 -0.24720271 -0.053530816 0.19135596 0.18911123
-0.0037328438 -0.23654464 -0.28769508 -0.20712765 0.20006908 0.0390709 0.046791643 0.3120367
0.19362229 0.27623612 -0.14785482 0.09983498 0.1525517 0.24227686 0.15986015 0.10893448
-0.14457026 0.13282607 -0.17302394 0.017468715 0.09827833 0.27906933 -0.2815343 0.068098255
0.0764223 0.17034312 0.21591361 -0.21244572 0.12845737 -0.12196159 -0.27542737 -0.1470129
0.233741 -0.13585196 0.05550437 0.26500455 0.21522991 0.032629717 -0.1954603 -0.24264261
0.0959919 -0.094261035 -0.29349437 -0.30721328 -0.1389531 0.17684582 0.26699317 -0.08912606
0.23690678 -0.11045536 0.20064498 -0.19271015 0.30079544 -0.31288305 0.102805346 0.27122524

gcn1.bias f4 [64]
00000000: 4a77 f53a 323f f4bb eb3a 703b 4392 743c
00000010: 7347 013c 5754 3bbc f403 e43b 5ee6 27bc
00000020: bc55 6fbb 4aed d4bb fe2a 9e3a 962d d8bb
00000030: 16e8 3cbc 87b8 30bc 95d9 803c 6618 8abc
00000040: 8918 3bbc 4565 49bc 7c4a 1c3c 3fc2 4cbc
00000050: 8173 35bc 144a d4bb 1754 3d3c 31e1 b03b
00000060: 3673 6bbc 20de 34bc 321f 5ebc 59d3 3d3c
00000070: 9768 3e3c 5ac6 0cbb 65af 36bc 7cd0 2bbc
00000080: d172 1abc 5f35 c63b 5624 1f3c 83d8 513c
00000090: b731 ffbb 9de0 afbb a988 25bb b299 9c3c
000000a0: 9790 b3bb 28d9 43bc 947c 6cbb d860 223c
000000b0: ca88 833c 5c97 51bc a0bc 25bc 5fd0 49bc
000000c0: f8a0 27bc 70cf 37bc 168e 96bb bbbc 523c
000000d0: 8493 0ebc 6611 9fbb 5a74 93bb 4da2 57bc
000000e0: 5d22 32bc 6c83 18bc 26ff ca3b e861 83bc
000000f0: ecf9 f8bb dc1b 013c 9189 a53a 0000 0000
0.0018727568 -0.0074538225 0.0036656212 0.01492745 0.00789057 -0.011433682 0.006958479 -0.010247795
-0.0036519608 -0.0064980136 0.0012067256 -0.006597231 -0.011529943 -0.010786182 0.015728751 -0.016857337
-0.011419424 -0.012292211 0.009539243 -0.012497484 -0.011074902 -0.0064785574 0.011555693 0.0053979387
-0.01437073 -0.011039287 -0.013557242 0.011586034 0.011621616 -0.0021480531 -0.011150216 -0.010486718
-0.009426788 0.006048843 0.009713253 0.012807968 -0.007787909 -0.005367352 -0.0025258458 0.019116256
-0.005479883 -0.01195363 -0.0036084997 0.009910785 0.016056437 -0.012792435 -0.0101157725 -0.012317746
-0.010231249 -0.011218891 -0.0045945747 0.01286238 -0.008702163 -0.004854369 -0.004499954 -0.013161254
-0.010872451 -0.009308677 0.006194967 -0.016037896 -0.0075981524 0.007880177 0.0012629499 0.0

gcn2.weight f4 [64, 7]
00000000: a27e cb3e 8dd0 f5be f03c e03b 03da 353d
00000010: 658f 1cbf b1cb 3b3f 0d0f fd3e 8f2a 3e3f
00000020: 7993 10bf 1891 1c3f 6f7f 663f 6a5f 92be
00000030: fee7 10bf e351 4d3f c71d e7be 23fa 41bf
00000040: 9478 08bf 9df1 473f 204d ebbe 727f 3a3f
00000050: 30c3 dcbe b6c2 5cbf e636 4f3f f1c1 4dbe
00000060: 3212 e53e 53fc febe db86 263f a2c2 d8be
00000070: 731c 7abe 42f4 643f dc01 773e 5773 5abf
00000080: 7040 433f 60a8 5e3f 4d7b 2a3f c8ae 0cbf
00000090: 78c5 2ebe bd1a 0abf d51a 5e3f 88e8 513f
000000a0: 09c6 75be b06d b7bc 8988 44bf 668b 3bbf
000000b0: b07c adbe 6534 c6be add7 303f aba7 e73d
000000c0: 2e0a 0c3f 93e2 04be 0a0c 3cbf 178d 373f
000000d0: 62fd 6abe 51d6 59be 03c1 bebe 7f3b a03e
000000e0: 19ac 4bbe 9dd9 b1bd 9c32 32bf 09f1 413f
000000f0: 23cb ca3e bde6 65bf caba 96be 6506 5fbf
00000100: 1b01 5bbf 6b30 5c3f 6a98 91be 1ae3 1f3f
00000110: 860f 28bf 5948 96be ed6f dc3e 7ab4 de3d
00000120: 2c87 02be 3315 4f3f 3df0 aabe 2692 953e
00000130: 1808 28be 6a85 38bf 5626 c73e b273 383f
00000140: 516a b93e aa8c 413f 36f8 19bf 60e0 dfbd
00000150: 2506 223f b1c3 51bf 27e3 25bf eaf1 2fbf
00000160: 24f0 3cbc d3d4 5c3e 3ac1 46bf 914d c7be
00000170: 7ead 1dbf 6e18 7cbe 5c40 6f3e 4c54 253f
00000180: 0f4c 473f c10c adbe 11e5 c13d 9013 61bf
00000190: 97df 8abe 5419 5bbf 5161 53bf 88c0 78bd
000001a0: 018b b4be 636f 16bf 5840 e93e 2b5b 49bf
000001b0: 46d7 823e e2f1 f5be c423 e53d 19d0 163f
000001c0: 6066 11bf be24 86be 560f 0d3f 9f22 b03e
000001d0: b0ef 01bd 3f05 a03a 12e1 b83e 9321 093f
000001e0: b5c2 43bf d4b3 3fbf cfef 253f 24d0 3bbe
000001f0: 1b36 8fbe 0ae0 3fbe d605 f93d 38d9 403e
00000200: afab 8cbe e345 693f 3683 41bf 1c0c 5a3f
00000210: 8e70 07bf dc49 d6be 062c 30bf 90fd 97be
00000220: e3b9 f33e 732a 1a3f 3f9e c43e dfe0 02bf
00000230: f105 e9be 187d 8e3d 9c2c eebe 3969 a13e
00000240: c6ac ffbe 7d8f 923e c42e 0b3e 268d 9f3e
00000250: 46e9 6abe c77e b4be 6654 bf3e d467 d5be
00000260: ed82 d2be 6a4f 633e 451e 36bf 7b08 463f
00000270: b45e 093f 8408 a73e aec9 7b3e 1997 233e
00000280: 5596 a43e f43a 6cbf 56ed 023f 26e1 d6be
00000290: d060 57be f601 303f 718f a7be 1169 653f
000002a0: 9972 34bf d11e 5f3e 3121 f93e a72f 653f
000002b0: 9b7d 08be b14c b6be bb73 403e 2e78 203f
000002c0: e673 d1be b2ff 02bf 060d a83c 09bf 9dbe
000002d0: 8414 bdbe 720a 433f 7e14 e43e 6ba7 793e
000002e0: c3ff 15bf f786 6cbe b10f 883e 33bc b2be
000002f0: 6ec3 2b3f 1431 6e3f 50bf c73e c893 76be
00000300: ada5 c03d 8393 c0be 97b3 6a3e 5c3b 593e
00000310: 1adb f7be 059d 2b3f 608b 8b3e 7227 5fbe
00000320: 0e3a a8bb 48e7 6ebf 51c1 8c3e d199 643f
00000330: e826 7cbe 91a6 863e 55ca 013e 0403 15bf
00000340: 439f aebe b6c1 f43e b019 1d3f 180a 06bf
00000350: 6c13 4bbf f0df e0be 958f 953e 9f21 59bf
00000360: 69c9 043f 4e58 4e3f e102 b5be 66d8 f3be
00000370: 7f86 5a3f db0e 50bf 50c6 3e3d cdb4 433f
00000380: 9dde ccbe 949d cabe cfc9 4a3f 5833 343c
00000390: d0a6 4d3f 434f 2b3e c168 893e 464f 513f
000003a0: 5f59 30be 5946 0fbd a826 34be 2146 49bf
000003b0: 8293 6cbf a158 3d3f aef1 1e3f 556d 233f
000003c0: 6ca2 68bf 2cc8 21bf f65a 11bf 8627 6cbf
000003d0: dc72 083e 1a46 893e 6966 e83d e7d6 693d
000003e0: e396 fbbd 0c6a ca3e 555f c2be 744a bcbe
000003f0: f2d9 f5be 1ccd 86bc e3fe 49be 75fe cc3e
0.3974505 -0.48010674 0.006843202 0.044397365 -0.611563 0.73357683 0.49425545 0.7428369
-0.56475025 0.61158895 0.900382 -0.2858842 -0.5660399 0.80203074 -0.45139906 -0.75772303
-0.5330899 0.7810305 -0.4595728 0.72850716 -0.43117666 -0.86234605 0.80943143 -0.20093514
0.44740444 -0.49801883 0.65049523 -0.42335993 -0.24424915 0.8943521 0.24121803 -0.85332245
0.762702 0.8697567 0.6659439 -0.54954195 -0.17067516 -0.5394705 0.8675969 0.8199544
-0.24001326 -0.02239117 -0.76770836 -0.7325958 -0.33884192 -0.3871185 0.69079095 0.11311277
0.5470303 -0.12977056 -0.7345587 0.7169966 -0.2294822 -0.21273161 -0.3725663 0.31295392
-0.19889869 -0.086840846 -0.69608474 0.75758415 0.39608106 -0.89805204 -0.29439384 -0.8711913
-0.8554856 0.8601138 -0.28436595 0.62455904 -0.65648687 -0.29352072 0.43054143 0.10874267
-0.12746876 0.8089172 -0.33386412 0.29213065 -0.16409338 -0.72078574 0.38896435 0.7205154
0.36213925 0.7560526 -0.60144365 -0.10931468 0.63290626 -0.81939226 -0.6479973 -0.68728507
-0.011531863 0.21565561 -0.7763859 -0.38926366 -0.61592853 -0.24618694 0.23364395 0.6458175
0.7785043 -0.33798793 0.09467519 -0.87920475 -0.2712371 -0.8558552 -0.8257037 -0.060730487
-0.35262302 -0.5876371 0.45556903 -0.78654736 0.25554866 -0.48036104 0.111884624 0.5891128
-0.56796837 -0.26199907 0.55101526 0.34401414 -0.031722724 0.0012208595 0.36109215 0.53566855
-0.76468974 -0.7488377 0.64819044 -0.18341118 -0.27970967 -0.18737808 0.12159316 0.18832862
-0.27474734 0.91122264 -0.75590837 0.8517473 -0.5290612 -0.41853225 -0.68817174 -0.2968564
0.47602758 0.6022102 0.38401982 -0.51124376 -0.45512345 0.069574535 -0.4651841 0.3152559
-0.49936503 0.28625098 0.13592058 0.31162375 -0.22940549 -0.35252973 0.37369078 -0.41680777
-0.41115513 0.22198263 -0.7113994 0.7735669 0.5366013 0.32623684 0.24588653 0.15975608
0.32145944 -0.92277455 0.51143396 -0.4196865 -0.21033025 0.6875299 -0.32726625 0.89613444
-0.7048736 0.217891 0.48658136 0.89525837 -0.13329165 -0.35605386 0.18794148 0.6268338
-0.40908736 -0.5117141 0.020514023 -0.3080981 -0.36929715 0.76187813 0.44546884 0.24380271
-0.58593386 -0.2309836 0.26574472 -0.3490921 0.6709508 0.9304364 0.39013147 -0.24079812
0.094066 -0.37612543 0.2292007 0.2121405 -0.4840935 0.6703647 0.27254772 -0.21792391
-0.005133874 -0.9332166 0.2749124 0.89297205 -0.24624217 0.26298955 0.1267484 -0.58207726
-0.34105882 0.4780404 0.6136732 -0.5235915 -0.7932651 -0.4392085 0.29211107 -0.84816927
0.5186983 0.8060349 -0.3535376 -0.47626036 0.85361475 -0.8127267 0.046575844 0.76447755
-0.4001359 -0.39573348 0.79214185 0.010998569 0.8033266 0.16729455 0.26837733 0.81761587
-0.17221592 -0.034979198 -0.17592871 -0.78622633 -0.9241258 0.7396336 0.62087524 0.638387
-0.90872836 -0.63196063 -0.5677942 -0.9224781 0.13325065 0.26811296 0.11347658 0.057089712
-0.12284639 0.39534032 -0.37963358 -0.36775553 -0.48017842 -0.016455226 -0.19726138 0.40037885

gcn2.bias f4 [7]
00000000: 8f2c b73b b59f 0b3c 8956 123c 3e9f 27bc
00000010: adf4 1abc a1b0 1f3b ad10 66bc
0.0055900286 0.008521964 0.008931764 -0.010230837 -0.009457749 0.0024366754 -0.014042062
